…
Best configuration: {'optimizer_name': 'sgd', 'batch_size': 32, 'learning_rate': 0.001, 'num_epochs': 40, 'use_dropout': False, 'dropout_rate': 0.5, 'use_batch_norm': True, 'momentum': 0.8, 'num_channels': 64}



Test Loss: 0.6914, Test Accuracy: 75.00%
precision    recall  f1-score   support

     Control       1.00      0.75      0.86         4
        ADHD       0.00      0.00      0.00         0

    accuracy                           0.75         4
   macro avg       0.50      0.38      0.43         4
weighted avg       1.00      0.75      0.86         4

DualBranch1DCNN(
  (hrv_branch): Sequential(
    (0): Conv1d(1, 64, kernel_size=(3,), stride=(1,), padding=(1,))
    (1): ReLU()
    (2): Conv1d(64, 128, kernel_size=(3,), stride=(1,), padding=(1,))
    (3): ReLU()
    (4): AdaptiveAvgPool1d(output_size=1)
    (5): Flatten(start_dim=1, end_dim=-1)
    (6): Linear(in_features=128, out_features=64, bias=True)
    (7): ReLU()
    (8): BatchNorm1d(64, eps=1e-05, momentum=0.1, affine=True, track_running_stats=True)
  )
  (activity_branch): Sequential(
    (0): Conv1d(1, 64, kernel_size=(3,), stride=(1,), padding=(1,))
    (1): ReLU()
    (2): Conv1d(64, 128, kernel_size=(3,), stride=(1,), padding=(1,))
    (3): ReLU()
    (4): AdaptiveAvgPool1d(output_size=1)
    (5): Flatten(start_dim=1, end_dim=-1)
    (6): Linear(in_features=128, out_features=64, bias=True)
    (7): ReLU()
    (8): BatchNorm1d(64, eps=1e-05, momentum=0.1, affine=True, track_running_stats=True)
  )
  (final_layers): Sequential(
    (0): Linear(in_features=128, out_features=128, bias=True)
    (1): ReLU()
    (2): BatchNorm1d(128, eps=1e-05, momentum=0.1, affine=True, track_running_stats=True)
    (3): Linear(in_features=128, out_features=1, bias=True)
  )
)